checkpoint_actor.pth (torch_old, 169452 bytes, 6 tensors)

fc1.weight f4 [256, 33]
0	0x3e1017ec	0.14071625
1	0xbd51629b	-0.051119428
2	0xbd2cd19e	-0.042192094
3	0x3d45d1d7	0.048295822
4	0x3cc6df8f	0.024276523
5	0x3e3bf2c3	0.18354325
6	0x3ce1cb7d	0.027562851
7	0x3d621fc7	0.055206086
8	0x3e12908b	0.14312951
9	0xbe376124	-0.1790815
10	0xbe41d57b	-0.18929093
11	0x3debe58c	0.11518392
12	0xbdeafd82	-0.11474134
13	0x3d87a852	0.066239014
14	0x3e51b6dc	0.20479912
15	0xbd829945	-0.0637689
16	0x3cd3f263	0.025872415
17	0xbca99df8	-0.020705208
18	0x3d5254b0	0.051350296
19	0xbddd2595	-0.10798184
20	0x3d7389a3	0.059457432
21	0xbd82bda9	-0.06383831
22	0xbc6c36e8	-0.014417388
23	0xbded0843	-0.115738414
24	0x3e2f229b	0.17103045
25	0x3dc83228	0.097751915
26	0x3d1aa972	0.037759252
27	0x3d90b762	0.070662275
28	0xbdbfdeb9	-0.09368653
29	0x3d012a70	0.031534612
30	0xbd19aa70	-0.037516057
31	0x3ce90074	0.028442599
32	0x3d5cfb0c	0.053950354
33	0xbd662001	-0.056182865
34	0x3dd46e73	0.10372629
35	0xbd2734f7	-0.040821996
36	0xbddcf7ac	-0.10789427
37	0x3c929b9a	0.017896462
38	0xbdaa48d2	-0.083146706
39	0xbd89e311	-0.067327626
40	0x3ea370a3	0.31921872
41	0xbd5267bd	-0.051368464
42	0xbd7cd2ac	-0.06172435
43	0xbe146241	-0.14490606
44	0x3d159a90	0.036524355
45	0xbe04fc42	-0.12986854
46	0x3d1b8b2c	0.03797452
47	0xbcb60783	-0.022220379
48	0x3d5cb773	0.05388589
49	0x39062ce0	0.00012795953
50	0xbe2958b5	-0.16537745
51	0x3e0f7580	0.14009666
52	0x3dbd9126	0.092562005
53	0x3c5dfb88	0.013548739
54	0xbd0a4b75	-0.033763368
55	0x3c1a34ce	0.009412004
56	0xbd3e2fe3	-0.046432387
57	0xbda62e7b	-0.08114334
58	0x3dc39f65	0.095518865
59	0xbdb91e2b	-0.09038957
60	0x3e0ea48e	0.1392996
61	0x3dd6b8d7	0.10484474
62	0xbd715bca	-0.058925427
63	0xbe02b787	-0.12765323
64	0x3d544e1a	0.051832296
65	0xbe7dd63a	-0.24788752
66	0xbd985101	-0.07437325
67	0xbd2c650e	-0.04208856
68	0xbd8e1a73	-0.069386385
69	0x3dd81d62	0.10552479
70	0x3d85e8d9	0.06538553
71	0x3e2a62e1	0.16639282
72	0xbd6359e7	-0.05550566
73	0xbcb552d6	-0.022134226
74	0x3d9356a3	0.07194259
75	0x3b1da4b9	0.0024054481
76	0xbaebdb45	-0.0017994425
77	0x3d0542b7	0.032534327
78	0x3ca9d651	0.020732077
79	0x3daa0419	0.08301563
80	0x3e0d0b0b	0.13773744
81	0x3b96d158	0.0046025924
82	0x3d956ad4	0.072957665
83	0xbc8ef433	-0.017450428
84	0x3da0245a	0.078194335
85	0x3d10a859	0.0353168
86	0xbc5b828c	-0.013397824
87	0xbd259e27	-0.04043403
88	0x3d91d8c4	0.07121423
89	0xbe477176	-0.19476876
90	0x3bd0da08	0.0063736476
91	0xbdc03240	-0.093845844
92	0xbe57ee0e	-0.21086904
93	0xbe17411d	-0.14770932
94	0xbd80d504	-0.062906295
95	0x3d064128	0.03277698
96	0x3daef38e	0.08542548
97	0xbd12a17c	-0.035798535
98	0xbd783c1b	-0.060604196
99	0x3cdd8494	0.027040757
100	0xbddf1ed0	-0.10894549
101	0x3e31adc6	0.17351446
102	0xbccb6584	-0.02482868
103	0xbd32382d	-0.043510605
104	0xbdf19a05	-0.11796955
105	0x3ca6a643	0.020342952
106	0xbe0edc6a	-0.13951269
107	0xbc15a9fc	-0.009134766
108	0xbd8657bd	-0.065597035
109	0xbde50ad2	-0.111837044
110	0xbc8d48f2	-0.017246697
111	0x3c4626b4	0.0120941885
112	0x3d2e8e45	0.042616148
113	0xbcf5d7a4	-0.030010052
114	0xbd7bbc02	-0.061458595
115	0xbddc6cb5	-0.10762922
116	0xbd59f1de	-0.05320918
117	0xbd3af528	-0.045643955
118	0xbd13b33f	-0.036059614
119	0x3cde62ac	0.02714666
120	0x3dcc397e	0.09971903
121	0x3e4d440f	0.20045494
122	0x3d8c0ec9	0.068387575
123	0x3d00b571	0.031423036
124	0xbd5a3cdb	-0.053280693
125	0x3e078a22	0.13236287
126	0xbb9c0ad3	-0.0047620325
127	0xbcad8260	-0.021180332
128	0xbd63518c	-0.05549769
129	0x3d0cb40f	0.034351405
130	0xbd34cd38	-0.044141024
131	0x3d5ff8a8	0.054680496
132	0x3dd646de	0.104627356
133	0xbe1d1aa3	-0.15342192
134	0xbe0c1b4f	-0.13682292
135	0x3da72fff	0.081634514
136	0x3a8527e8	0.0010158988
137	0x3d11fa14	0.035638884
138	0xbe48fb60	-0.19627142
139	0x3cc3e04e	0.023910668
140	0xbd7a7277	-0.06114432
141	0xbb197905	-0.002341808
142	0xbbf7095b	-0.007538957
143	0xbd934f93	-0.07192912
144	0xbd3d373b	-0.04619525
145	0x3de7d926	0.11320715
146	0x3e290bf9	0.16508473
147	0xbd9199df	-0.07109427
148	0xbe2bfe7a	-0.16796294
149	0xbc5ca6f4	-0.013467539
150	0xbcdb49b0	-0.026768535
151	0x3c2dbd1a	0.010604167
152	0x3d09a4d9	0.033604477
153	0xbc553f21	-0.013015539
154	0x3ce7edfd	0.028311724
155	0x3d0f2347	0.034945752
156	0x3b2a79ed	0.0026012615
157	0x3c34753e	0.011014281
158	0xbd95275d	-0.072828986
159	0xbdcd26ab	-0.10017141
160	0x3d067187	0.03282311
161	0x3c374fb8	0.01118844
162	0x3de4ff27	0.11181479
163	0x3d74a828	0.05973068
164	0xbaf37d7c	-0.0018576826
165	0x3dcb9f54	0.09942499
166	0x3e1f198d	0.1553709
167	0xbd303823	-0.043022286
168	0x3d59448a	0.05304388
169	0xbcdaa90e	-0.02669194
170	0xbd8f63ae	-0.07001434
171	0x3d9210ad	0.07132087
172	0x3e301482	0.17195323
173	0x3ddfba65	0.10924224
174	0x3de6867d	0.1125612
175	0x3df61b56	0.12016933
176	0x3bfc897f	0.0077068205
177	0xbc2028fd	-0.009775397
178	0x3e0ee9d5	0.13956387
179	0xbd432fc6	-0.047652982
180	0x3e246417	0.16053806
181	0xbdf5c7ca	-0.12000997
182	0x3ceb38ca	0.028713603
183	0xbd4207e6	-0.047370814
184	0x3da6d438	0.08145946
185	0x3d3c4ed9	0.045973632
186	0x3d184df9	0.037183736
187	0xbdb38e39	-0.08767361
188	0x3db6b882	0.08921911
189	0x3bd789b0	0.006577693
190	0x3d1f00e0	0.038819194
191	0xbc12cd72	-0.008960115
192	0x3d53fd6c	0.051755354
193	0x3d539347	0.051654126
194	0x3cbf8ce8	0.023382619
195	0xbd7990cc	-0.060929105
196	0x3c824cb4	0.015905716
197	0x3e1d02bd	0.15333076
198	0xbd93e405	-0.07221226
199	0xbd75b594	-0.05998762
200	0x3d8cf414	0.06882492
201	0x3d381336	0.044940196
202	0xbd9cff53	-0.07665887
203	0xbd756548	-0.059911042
204	0xbdb21c0b	-0.08696755
205	0x3d19be62	0.03753508
206	0xbe286e24	-0.16448265
207	0xbe00595e	-0.12534091
208	0xbcee57aa	-0.029094536
209	0x3d61be57	0.055113163
210	0xbd3b9c7e	-0.04580354
211	0xbdc2c71e	-0.09510635
212	0x3cb69d21	0.022291722
213	0xbdc3a6b1	-0.09553278
214	0xbd8bcfe0	-0.068267584
215	0xbd23c3ce	-0.039981656
216	0x3c9a43e2	0.018831197
217	0x3c805764	0.015666671
218	0xbbdd631d	-0.0067562
219	0xbd8d4c3e	-0.06899308
220	0xbd8c3bbb	-0.0684733
221	0x3caeca55	0.021336714
222	0xbd8214f7	-0.06351655
223	0x3d5ba071	0.053619806
224	0x3e2c68e1	0.16836883
225	0xbd54a9af	-0.051919635
226	0x3ddab993	0.10679927
227	0x3d22ba90	0.0397287
228	0xbb9d1a18	-0.0047943704
229	0x3c468038	0.012115531
230	0x3eb81d8e	0.35960048
231	0x3ccad02b	0.024757465
232	0x3d18afae	0.037276916
233	0xbc0f2f2e	-0.008739276
234	0x3d356cc1	0.04429317
235	0x3dc3b014	0.095550686
236	0x3c4a1474	0.012333978
237	0xbd902482	-0.07038213
238	0x3d8c2f2d	0.068449356
239	0xbd00004c	-0.031250283
240	0xbe24b729	-0.16085495
241	0xbc527e5f	-0.012847512
242	0xbd64b818	-0.055839628
243	0xbe8a4fa8	-0.27013898
244	0x3d91220e	0.070865735
245	0x3df183de	0.1179273
246	0xbe2a774a	-0.16647068
247	0xbc4c4a90	-0.012468949
248	0x3c783d48	0.015151329
249	0xbd5f3f7f	-0.054503914
250	0x3b3bd444	0.0028660456
251	0xbd6c7e08	-0.05773738
252	0x3c2fba09	0.010725507
253	0x3d7cae2a	0.061689533
254	0x3c4b4046	0.012405461
255	0x3d85feef	0.06542765

fc1.bias f4 [256]
0	0x3d471c27	0.048610833
1	0x3d40521e	0.046953313
2	0x3dc0b986	0.09410386
3	0x3e1282e6	0.14307746
4	0x3d6b1b8a	0.05739931
5	0xbe639f63	-0.2222877
6	0xbde38cce	-0.11110841
7	0xbe05fa7a	-0.1308383
8	0x3de247d5	0.11048857
9	0x3d8f425c	0.06995079
10	0xbb900018	-0.0043945424
11	0xbda85af1	-0.08220471
12	0x3d8e4082	0.06945898
13	0xbc830476	-0.015993338
14	0x3db35fa0	0.087584734
15	0xbe07e68c	-0.1327154
16	0xbe1c1655	-0.15242894
17	0xbd5df599	-0.0541893
18	0x3e3532bc	0.17695135
19	0xbe2d5fa6	-0.16931018
20	0x3d82cffa	0.06387325
21	0x3d126392	0.03573949
22	0xbd890521	-0.066904314
23	0x3cbc4f4d	0.022987032
24	0x3dd2cc0f	0.10292827
25	0xbd826979	-0.063677736
26	0x3df91c03	0.12163546
27	0xbe016f9e	-0.12640235
28	0x3e1f568a	0.15560356
29	0x3d995123	0.07486179
30	0x3d8a0a7e	0.067402825
31	0xbdeae316	-0.114690945
32	0xbe096450	-0.13417172
33	0xbdd6deac	-0.1049169
34	0x3dc5ea3d	0.09663818
35	0x3dd06fd7	0.10177582
36	0x3e4ed075	0.20196708
37	0x3e38c236	0.18042836
38	0xbdef57da	-0.11686678
39	0x3e4130cc	0.18866271
40	0xbdb47f32	-0.08813323
41	0xbe2ef001	-0.17083742
42	0x3da28a72	0.079365626
43	0xbd360190	-0.044435084
44	0xbd94a118	-0.07257289
45	0xbd803c69	-0.06261522
46	0x3e3c843e	0.18409821
47	0x3e1793a8	0.1480242
48	0x3dafbf37	0.08581393
49	0x3d1bed58	0.038068146
50	0xbd823fb3	-0.06359806
51	0xbcea9325	-0.028634617
52	0xbe0e4456	-0.13893256
53	0xbd8a0ef3	-0.067411326
54	0xbdb78b90	-0.08962166
55	0x3e04db86	0.12974367
56	0xbd545297	-0.051836576
57	0x3da0b25e	0.07846521
58	0xbdb5f8c9	-0.08885343
59	0x3c94e242	0.018174294
60	0xbd4feeeb	-0.05076496
61	0x3e38e1b1	0.18054844
62	0xbdbba210	-0.0916177
63	0x3d3b204c	0.045685098
64	0xbcb38133	-0.021912193
65	0xbca2c7be	-0.019870635
66	0x3cd02d84	0.025412329
67	0x3d8c06c6	0.068372294
68	0x3d966488	0.073433936
69	0x3d628797	0.05530509
70	0x3e10064a	0.14064899
71	0x3e355197	0.17706905
72	0xbb004eb7	-0.0019578168
73	0xbddda909	-0.108232565
74	0x3dd1181d	0.10209677
75	0x3e336f83	0.17523007
76	0x3d981813	0.07426467
77	0xbd86b31c	-0.06577131
78	0x3e32fa67	0.17478333
79	0xbdbbbf89	-0.09167392
80	0x3de1cb4a	0.110251024
81	0x3e304f5a	0.1721777
82	0xbd2709b3	-0.040780734
83	0x3de3d50c	0.1112462
84	0x3e49f468	0.1972214
85	0xbe0d8d1a	-0.13823357
86	0x3e704866	0.23465118
87	0xbca8d2fb	-0.020608416
88	0x3e5a07e3	0.21292071
89	0x3e55939a	0.20857087
90	0x3e48eaed	0.19620867
91	0xbc79c45f	-0.015244572
92	0x3d84fc7b	0.06493469
93	0xbe1f5426	-0.15559444
94	0xbd68de17	-0.056852426
95	0x3df9b7c9	0.12193257
96	0x3e377fce	0.17919847
97	0x3b27f81e	0.0025630067
98	0x3dad57e6	0.08464031
99	0x3c8b3cca	0.01699676
100	0x3e3f5dea	0.18688169
101	0x3d1998bc	0.037499174
102	0x3db72623	0.08942821
103	0xbd0dbebd	-0.03460573
104	0xbdc07239	-0.09396786
105	0x3e517c59	0.20457591
106	0xbd822839	-0.06355328
107	0x3e2d0a69	0.16898502
108	0xbcde9c63	-0.02717418
109	0xbb8b11e0	-0.004244074
110	0x3e8cb939	0.27485064
111	0x3e42cd57	0.19023643
112	0xbd3f5132	-0.046708293
113	0x3c0b6ea1	0.008510263
114	0x3d498251	0.049196545
115	0xbd04ab33	-0.03238983
116	0xbcd7f18e	-0.0263603
117	0xbe36928a	-0.17829338
118	0x3db89437	0.09012645
119	0xbdfbffad	-0.12304626
120	0x3deba3ff	0.11505889
121	0x3e18fa4c	0.1493923
122	0x3e20d7f2	0.15707377
123	0xbd5c7f58	-0.053832382
124	0x3c412efa	0.011790985
125	0x3e263338	0.16230476
126	0x3c0fd7b4	0.008779455
127	0x3e07cac9	0.1326095
128	0xbc0bbf94	-0.0085295625
129	0x3d98650e	0.0744115
130	0xbe07d03a	-0.13263026
131	0xbe16a721	-0.14712192
132	0x3c7686eb	0.015046815
133	0x3bf8471e	0.007576837
134	0x3d1c9b0b	0.038233798
135	0x3bd93544	0.006628664
136	0xbe1f495b	-0.15555327
137	0x3e528a43	0.20560555
138	0xbdd91429	-0.10599548
139	0xbd2ce25f	-0.04220807
140	0x3c831a7e	0.016003843
141	0xbd21b491	-0.039478842
142	0xbe1e44bb	-0.15455906
143	0xbd0ed4af	-0.0348708
144	0x3dffe888	0.12495524
145	0xbc72cd4d	-0.014819455
146	0x3d7fbcf2	0.06243605
147	0x3d05ca19	0.03266344
148	0x3d240b09	0.040049586
149	0x3e60ac67	0.21940766
150	0x3d011cc8	0.03152159
151	0x3cc381af	0.023865549
152	0x3c2866bc	0.0102784
153	0x3e231f5c	0.15929931
154	0x3e59354b	0.21211736
155	0xbd84e7c8	-0.06489521
156	0x3e1310e4	0.14361912
157	0xbdd4cbca	-0.10390432
158	0x3cb807f3	0.022464728
159	0xbe1d9d5b	-0.15392058
160	0x3da7c902	0.08192636
161	0xbd990072	-0.07470788
162	0xbd83e174	-0.06439486
163	0xbe3c96e7	-0.1841694
164	0xbd149261	-0.03627241
165	0x3d961fff	0.073303215
166	0x3de03752	0.109480515
167	0x3d7176cb	0.05895118
168	0x3b8ca3ad	0.0042919726
169	0x3d4b051b	0.049565416
170	0xbe3125db	-0.17299597
171	0x3e170d8a	0.14751258
172	0x3e5dab93	0.21647482
173	0x3e5997f3	0.2124937
174	0x3dc9bc02	0.09850313
175	0x3dcb2ad8	0.09920281
176	0x3dfdaf4b	0.1238695
177	0xbc130cfa	-0.008975262
178	0x3e10ea8c	0.14151973
179	0xbd318821	-0.043342713
180	0xbdfe5f34	-0.12420502
181	0x3e3cb455	0.18428166
182	0xbe34ebaf	-0.17668031
183	0x3d07fb5c	0.0331987
184	0x3cd825e0	0.026385248
185	0x3d8ab923	0.06773593
186	0xbcb89ab2	-0.022534702
187	0x3d21afa2	0.039474137
188	0x3c66b61c	0.014081504
189	0x3eaa82c9	0.33302906
190	0x3c1f00d5	0.009704788
191	0x3e09f85c	0.13473648
192	0x3d7f0dbf	0.06226897
193	0x3d96d6f5	0.073652185
194	0x3e0150fd	0.12628551
195	0xbc6f6683	-0.014611843
196	0xbe015ef6	-0.12633881
197	0xbe82491e	-0.2544641
198	0xbdb3331c	-0.08749983
199	0x3d906f5b	0.07052489
200	0xbc65f1d1	-0.014034704
201	0x3e0efdd7	0.1396402
202	0xbcaf89c6	-0.021428
203	0xbd174afd	-0.03693675
204	0x3dc99966	0.098437116
205	0xbd4c95b7	-0.049947467
206	0x3dcd6b49	0.10030229
207	0xbc361414	-0.011113185
208	0xbdc24453	-0.09485688
209	0xbd2db78d	-0.042411376
210	0x3d3bde7d	0.04586648
211	0x3c1f2a3e	0.009714661
212	0x3e0423b5	0.12904246
213	0xbd257b3f	-0.04040074
214	0x3c97abc4	0.018514521
215	0x3dcc9e8a	0.099911764
216	0x3e217fff	0.15771483
217	0x3d55befe	0.052184097
218	0x3db247ad	0.08705077
219	0x3d64fa1c	0.055902585
220	0x3d73af73	0.059493493
221	0xbe2a73cb	-0.16645734
222	0xbe55dfac	-0.20886105
223	0xbde6293a	-0.11238332
224	0x3e5f2903	0.21792988
225	0xbe04bc4e	-0.12962458
226	0xbe4f0cc1	-0.20219709
227	0xbd84a983	-0.06477644
228	0xbd3a7bb2	-0.04552812
229	0x3da6136f	0.081091754
230	0xbd1b0bda	-0.0378531
231	0x3ddf71c4	0.10910371
232	0xbe2460a9	-0.16052498
233	0xbe772cde	-0.24138209
234	0x3e5b67f2	0.2142637
235	0xbcd0b28c	-0.025475763
236	0xbbb422ff	-0.005497336
237	0x3e0aeccd	0.13566895
238	0xbb7a3076	-0.0038175858
239	0xbe287b42	-0.16453269
240	0x3dc455d9	0.09586687
241	0xbe4048bf	-0.1877775
242	0x3e545f6c	0.20739526
243	0xbd148c8b	-0.036266845
244	0x3d6d4650	0.057928383
245	0x3d2844f5	0.041081388
246	0x3bb7bd85	0.0056073093
247	0x3d6cb406	0.05778887
248	0x3df8b033	0.12142982
249	0xbdb79270	-0.089634776
250	0x3d8740b9	0.06604142
251	0xbe155ad9	-0.14585437
252	0x3e25c7b8	0.16189468
253	0xbdecd71e	-0.11564468
254	0x3d92e772	0.07173051
255	0x3e53a986	0.20670137

fc2.weight f4 [128, 256]
0	0x3d54db42	0.051966913
1	0x3dc3c151	0.095583566
2	0xbe163442	-0.14668372
3	0xbe03c38a	-0.12867561
4	0x3e1c58cc	0.15268248
5	0x3e2927e3	0.16519122
6	0xbdfd1370	-0.12357223
7	0x3c45591e	0.012045173
8	0x3da851bd	0.08218715
9	0x3e0befd7	0.1366571
10	0x3d9cb8ef	0.07652461
11	0x3e6858c0	0.22690105
12	0x3e0231d7	0.12714325
13	0xbc9d9500	-0.019236088
14	0x3de0f3c5	0.10983995
15	0x3b36c329	0.002788732
16	0xbdcdcb35	-0.10048524
17	0xbd8eafeb	-0.069671474
18	0xbdce1515	-0.10062615
19	0xbd2286b8	-0.03967926
20	0x3d919e4c	0.07110271
21	0x3e2561fb	0.16150658
22	0x3d81d62e	0.0633968
23	0x3cd36e9f	0.025809584
24	0xbde8e09e	-0.11370967
25	0xbbfbe7b2	-0.0076875323
26	0x3cda1015	0.026618997
27	0xbc097b6f	-0.008391245
28	0xbd662aa0	-0.056192994
29	0x3dfba36a	0.12287028
30	0xbb78b8c0	-0.0037951916
31	0x3d4586ba	0.04822419
32	0xbe94b78c	-0.29046285
33	0x3d6b85d4	0.057500675
34	0x3d4a6888	0.049416095
35	0xbe7a1822	-0.24423268
36	0x3e4c7f53	0.19970445
37	0xbdef66ad	-0.11689506
38	0xbc95ed92	-0.018301759
39	0xbd06885c	-0.032844886
40	0xbdaa7956	-0.08323924
41	0x3e413e4c	0.1887142
42	0x3dbee498	0.093209445
43	0xbda3a332	-0.079901114
44	0xbaa60c9f	-0.0012668556
45	0x3e196684	0.14980513
46	0x3c95df3c	0.018294923
47	0x3df7c9aa	0.12099011
48	0x3d868da1	0.06569982
49	0x3c372673	0.011178601
50	0xbd244445	-0.04010417
51	0xbd02530e	-0.03181749
52	0x3d27470c	0.04083924
53	0xbdaa1b02	-0.083059326
54	0xbe312e2c	-0.1730277
55	0x3d8654c1	0.06559134
56	0xbd7680b2	-0.060181327
57	0x3d21e714	0.039527014
58	0x3ec161c8	0.37769914
59	0x3e17ce4a	0.14824787
60	0x3d7d8750	0.061896622
61	0x3ddd1b51	0.10796226
62	0x3e24417a	0.16040602
63	0xbc6c073d	-0.014406023
64	0xbf07aa3c	-0.5299413
65	0xbe19729b	-0.14985125
66	0x3e4ed499	0.20198287
67	0x3de99e69	0.114071675
68	0x3d2c6a6a	0.04209367
69	0x3e130c35	0.14360125
70	0xbc77f4d8	-0.015134059
71	0xbcf08119	-0.029358434
72	0x3bdba526	0.006703037
73	0x3cfc1c43	0.030775195
74	0xbc58e5ec	-0.013238411
75	0x3e158a62	0.1460357
76	0x3d049313	0.032366823
77	0x3d5f2881	0.054481987
78	0xbca7097a	-0.020390261
79	0x3d8dfa7f	0.06932544
80	0x3d1e3818	0.038627714
81	0xbded3992	-0.11583246
82	0x3d30353f	0.04301953
83	0x3c288c44	0.010287348
84	0xbc88d245	-0.016701827
85	0x3dcf12ce	0.101110086
86	0xbe787b16	-0.24265704
87	0x3e17eb30	0.1483581
88	0x3d00f23d	0.031481016
89	0xbd159313	-0.036517214
90	0x3d0c3075	0.0342259
91	0xbd5027f4	-0.050819352
92	0xbe506bcc	-0.20353621
93	0xbc680e67	-0.01416359
94	0xbe0c0fdc	-0.13677925
95	0x3d94ce6e	0.07265936
96	0xbca7b25f	-0.020470796
97	0xba593b46	-0.00082867255
98	0xbc8aefeb	-0.016960105
99	0xbe7e328a	-0.24823967
100	0x3de56f30	0.11202848
101	0x3cf890d2	0.030342493
102	0x3d224241	0.039613966
103	0xbcb434b8	-0.021997795
104	0xbe91572f	-0.28386828
105	0x3e3ce9e6	0.184486
106	0xbe0c1689	-0.13680471
107	0xbda60aa6	-0.081075
108	0x3be2933e	0.0069145253
109	0x3d9c0353	0.076178215
110	0x3d67bee7	0.056578543
111	0xbdcfcc65	-0.10146407
112	0x3d69abf2	0.057048745
113	0x3d87bec3	0.06628182
114	0x3cf1df47	0.029525412
115	0x3da987f6	0.082778856
116	0x3e0c1d21	0.13682987
117	0xbcec691f	-0.02885872
118	0x3caa931f	0.020822106
119	0xbd9b8823	-0.075943254
120	0x3d24ee52	0.040266342
121	0xbe154f2f	-0.14580987
122	0xbdc8e074	-0.09808436
123	0xbd8b2d9c	-0.06795809
124	0xbc4a3db4	-0.012343813
125	0xbb089964	-0.002084338
126	0x3d87afc7	0.06625324
127	0x3e1ac237	0.1511315
128	0xbdbd6dbb	-0.09249445
129	0xbb5b5de3	-0.003347271
130	0xbda3b170	-0.07992828
131	0xbe3ff44c	-0.18745536
132	0x3e21f99f	0.15817879
133	0x3d8a56fc	0.06754872
134	0xbd9cde49	-0.07659585
135	0x3dfb12a0	0.12259412
136	0xbd498345	-0.049197454
137	0xbd0e4030	-0.034729183
138	0x3ddaa9b7	0.10676902
139	0xba576a8a	-0.00082174747
140	0xbbcc76cf	-0.006239749
141	0xbdd66034	-0.10467568
142	0x3dcde5ec	0.1005362
143	0x3d296e88	0.041365176
144	0xbcb89093	-0.022529876
145	0x3df5719f	0.11984562
146	0xbb1e07e1	-0.0024113583
147	0x3c96f28e	0.018426206
148	0xbd3fb958	-0.046807617
149	0x3dff87ef	0.12477099
150	0x3e18d91b	0.14926569
151	0x3d84afbd	0.06478832
152	0xbcfca318	-0.030839488
153	0x3d2bd0c4	0.04194714
154	0x3c26d55b	0.010182704
155	0x3dd507b0	0.10401857
156	0x3e7c0a2b	0.24613254
157	0x3dc14242	0.09436466
158	0x3d29ce60	0.04145658
159	0x3e51a9a4	0.20474869
160	0xbe13f659	-0.14449443
161	0xbdec3fd8	-0.11535615
162	0x3d304250	0.04303199
163	0x3e240d68	0.16020739
164	0xbe9c500a	-0.30529815
165	0xbdd8109a	-0.105500415
166	0xbc2bf64e	-0.010495735
167	0xbe389e3f	-0.18029116
168	0xbd1ba420	-0.03799832
169	0x3c63945b	0.013890351
170	0xbe323510	-0.17403054
171	0x3d396484	0.045261875
172	0x3dcb4985	0.09926132
173	0xbe07cc8f	-0.13261627
174	0xbe680b3b	-0.22660534
175	0xbd662439	-0.05618689
176	0x3e073b82	0.13206294
177	0x3d7c427d	0.061586846
178	0xbd8c3574	-0.06846133
179	0x3d066b78	0.032817334
180	0xbe4b4172	-0.19849184
181	0xbe463065	-0.19354399
182	0x3e8a1035	0.2696549
183	0xbe1c441d	-0.15260358
184	0x3dac57cf	0.08415186
185	0x3dae6c6c	0.085167736
186	0x3cbd2065	0.023086736
187	0x3d888122	0.06665255
188	0xbea88fb6	-0.32922143
189	0xbdc300a1	-0.09521604
190	0x3e770eff	0.24126814
191	0x3cd40707	0.025882257
192	0x3db6f0e2	0.089326635
193	0xbbb14cde	-0.0054107746
194	0xbd018fcc	-0.031631276
195	0xbd9ae613	-0.075634144
196	0xbe5f203a	-0.21789637
197	0xbc1d5090	-0.009601727
198	0x3ce21aa6	0.027600598
199	0xbe7b5dae	-0.24547455
200	0xbdf9f999	-0.1220581
201	0xbdc5dff2	-0.09661855
202	0x3d499a2d	0.0492193
203	0xbe92f02a	-0.28698856
204	0xbd1bd070	-0.03804058
205	0x3bc25497	0.005930494
206	0xbd9e7b7d	-0.07738397
207	0xbc8fd7dd	-0.017558986
208	0xbe36b9f8	-0.17844379
209	0x3cd71468	0.026254848
210	0x3e8819d6	0.2658221
211	0x3e11a505	0.14223106
212	0xbd88db78	-0.06682485
213	0xbe1b8ee8	-0.15191233
214	0xbc5c3bad	-0.013441962
215	0x3dbd6dbf	0.09249448
216	0x3d4abdf5	0.049497563
217	0x3c900428	0.017580107
218	0x3d3bb249	0.045824323
219	0x3d362501	0.044468883
220	0x3e4048c2	0.18777755
221	0x3d08c80c	0.033393905
222	0xbd02fd58	-0.03197989
223	0x3c0178fb	0.007902379
224	0x3d28518f	0.041093405
225	0xbd05b2a2	-0.03264106
226	0x3d072dab	0.033002537
227	0xbe4946f4	-0.19655973
228	0xbdafa049	-0.08575494
229	0xbae9d43e	-0.0017839742
230	0xbd8ecd64	-0.06972769
231	0x3b3e3ff6	0.0029029823
232	0xbd142a5f	-0.03617322
233	0x3c3a0f64	0.0113562085
234	0xbe06c734	-0.13161927
235	0x3d5738ac	0.05254428
236	0x3d8cb308	0.06870085
237	0x3d890fd4	0.06692472
238	0x3e1926d1	0.14956214
239	0xbc5be33d	-0.013420877
240	0xbdea2ebf	-0.11434697
241	0xbdb22f87	-0.08700471
242	0xbcd2f16a	-0.02574988
243	0xbdd55822	-0.104172006
244	0xbcbd834b	-0.023133894
245	0xbd592a8b	-0.053019088
246	0x3df36b74	0.118857294
247	0x3cb05047	0.021522654
248	0x3c95851e	0.018251952
249	0xbbaee68d	-0.0053375424
250	0xbc01eaa2	-0.007929476
251	0x3d7a505d	0.061111797
252	0xbd3141e3	-0.043275725
253	0x3dffc267	0.12488251
254	0x3d63d2e2	0.055621035
255	0x3c775097	0.015094898

fc2.bias f4 [128]
0	0x3c8ab1d9	0.016930507
1	0xbd19011f	-0.037354585
2	0xbd36fee0	-0.04467666
3	0xbb6309c5	-0.0034643274
4	0xbd19f7c0	-0.03758979
5	0x3db6ba4e	0.089222535
6	0xbc3766bd	-0.011193928
7	0xbc67bfd6	-0.014144858
8	0x3d3a62eb	0.04550449
9	0xbc7e7acd	-0.015532208
10	0x3d349e40	0.04409623
11	0xbd5002e8	-0.05078402
12	0xbc414d4d	-0.011798215
13	0x3d5c16b4	0.05373259
14	0xbc915012	-0.017738376
15	0x3d3aec3c	0.045635447
16	0xbba10bf7	-0.0049147564
17	0x3ce28a45	0.027653823
18	0xbd8d0ff4	-0.068878084
19	0xbd43dba7	-0.0478169
20	0xbc6ac87a	-0.014330024
21	0xbce8da66	-0.028424453
22	0xbd9372f0	-0.07199657
23	0x3d1cce14	0.03828247
24	0x3a79b769	0.00095259264
25	0xbcd74085	-0.026275882
26	0xbc451b89	-0.012030491
27	0x3d3b6ed2	0.045759983
28	0xbb8091c4	-0.0039236266
29	0x3c0facfd	0.008769271
30	0xbd38518c	-0.044999644
31	0xbc5383d3	-0.012909847
32	0xbd4aa55a	-0.049474098
33	0x3c8e3807	0.0173607
34	0xbd31e332	-0.04342956
35	0xbd9af277	-0.07565778
36	0x3ced815f	0.028992353
37	0xbc1f8a10	-0.0097375065
38	0x3af863f7	0.001895069
39	0xbcbe5fe8	-0.023239091
40	0x3d8cfcac	0.06884131
41	0xbc86b76a	-0.01644488
42	0xbd317a2a	-0.043329395
43	0xbcd4f1e3	-0.025994247
44	0xbd51957c	-0.05116795
45	0x3d66b18e	0.056321673
46	0xbcddf206	-0.027092945
47	0xbd29b3ba	-0.041431166
48	0xbd7a9533	-0.061177444
49	0x3cd40f68	0.025886253
50	0xbd1891a0	-0.037248254
51	0xbd102f96	-0.03520163
52	0x3d116bc7	0.035503175
53	0xbd7edf81	-0.06222487
54	0xbd32c451	-0.043644253
55	0x3c9d8357	0.019227667
56	0x3c9740ab	0.018463453
57	0xbb3656be	-0.0027822698
58	0x3db12b63	0.086508535
59	0x3bd523fe	0.0065045347
60	0xbc37f6df	-0.011228292
61	0x3c823920	0.01589638
62	0xbc033ac6	-0.008009618
63	0x3d24f9d1	0.040277306
64	0xbcf9356c	-0.030420981
65	0x3d9fe208	0.07806784
66	0xbcab5802	-0.020915989
67	0x3cf734c2	0.030176524
68	0xbb393f1a	-0.0028266371
69	0xbcb3f451	-0.021967085
70	0x3c8022ad	0.015641535
71	0x3d55f7f5	0.052238423
72	0x3c51a35c	0.012795296
73	0xbcf70ccb	-0.030157467
74	0xbd1d864a	-0.038458146
75	0x3bf7daf6	0.007563944
76	0xbd182747	-0.037146833
77	0x3da60452	0.08106293
78	0x3cc6c024	0.024261542
79	0x3dd7fa29	0.10545761
80	0xbce2282a	-0.027607042
81	0x3cdc500e	0.026893642
82	0x3d753382	0.059863575
83	0xba9d701d	-0.0012011562
84	0xbce39fe7	-0.027786208
85	0xbd7f0d26	-0.0622684
86	0x3d240b58	0.04004988
87	0x3b60b092	0.0034284932
88	0x3ce69cdc	0.028150968
89	0x3c8c1418	0.017099425
90	0x3d9d5adb	0.07683345
91	0x3d14e948	0.036355287
92	0x3cf6e032	0.030136202
93	0xbce26af5	-0.027638892
94	0x3beaf260	0.0071700066
95	0xbc2f46c8	-0.010698028
96	0xbd751bf7	-0.059841122
97	0x3caced68	0.021109298
98	0xbd65fe78	-0.056150883
99	0xbb2b2755	-0.0026115973
100	0xbd02f9e7	-0.031976607
101	0x3d5443bc	0.05182241
102	0x3d1a58f0	0.037682474
103	0x3cd73b1a	0.026273299
104	0x3d955141	0.072908886
105	0x3b62bf3f	0.0034598855
106	0xbd51e16f	-0.05124038
107	0x3d9f6ba8	0.07784206
108	0x3d389a94	0.045069292
109	0x3bc56eaa	0.006025155
110	0xbb4d3796	-0.003131365
111	0xbdb61961	-0.088915594
112	0x3d5751c3	0.05256821
113	0xbd22d01c	-0.03974925
114	0x3dc62bd1	0.09676326
115	0x3c091324	0.00836638
116	0x3db3407b	0.08752533
117	0x3cb322da	0.021867204
118	0x3d2d1219	0.042253587
119	0x3ca89455	0.020578543
120	0xbd381d5b	-0.04494987
121	0x3c91a15d	0.01777714
122	0xbbad6529	-0.0052916002
123	0x3d8fc4a9	0.07019932
124	0xbd9a2faf	-0.07528626
125	0xbc8e8990	-0.01739958
126	0xbc9d42fa	-0.019196976
127	0xbc7ca9fd	-0.015421388

fc3.weight f4 [4, 128]
0	0xbceb0373	-0.028688168
1	0xb9da1bbd	-0.00041600867
2	0xbe3b09d9	-0.18265475
3	0x3dd49083	0.10379126
4	0x3defeca8	0.117150605
5	0xbdbc3152	-0.091890946
6	0x3db77db9	0.089595266
7	0x3d33bb77	0.043879952
8	0x3e1f4c25	0.1555639
9	0xbe61cc52	-0.22050598
10	0x3e229cf7	0.1588019
11	0xbe944bdc	-0.28964126
12	0x3e56cdcd	0.20976944
13	0x3dba2a5d	0.090901114
14	0xbcad903f	-0.021186946
15	0x3eb22038	0.34790206
16	0x3dd5cc43	0.104393505
17	0x3cd06a61	0.02544135
18	0x3ed9a503	0.42508706
19	0x3e541687	0.20711718
20	0x3c2eb8f7	0.010664216
21	0xbd49c87f	-0.049263474
22	0x3e2b103c	0.16705412
23	0xbce4b0c0	-0.027916312
24	0x3c10acdd	0.008830276
25	0x3ea66908	0.32502007
26	0xbdb1f3fc	-0.086891145
27	0xbc9378a3	-0.01800186
28	0x3c9349a7	0.017979456
29	0x3e89d38d	0.26919213
30	0xbe027718	-0.12740743
31	0x3e914693	0.28374156
32	0xbef52309	-0.47878292
33	0x3e055430	0.13020396
34	0x3e508001	0.2036133
35	0x3e94f572	0.2909351
36	0xbe1d6a41	-0.15372564
37	0xbd8f70e3	-0.07003953
38	0xbdda536f	-0.10660445
39	0x3e145b69	0.14487995
40	0xbe62f218	-0.22162664
41	0xbd893d81	-0.06701184
42	0xbf05adb0	-0.5221815
43	0x3ed526da	0.41631204
44	0xbdc4a600	-0.096019745
45	0x3cb16668	0.021655276
46	0xbdbdf53f	-0.092752926
47	0x3db0a8ee	0.08625971
48	0xbe74ca46	-0.23905286
49	0x3d8259fd	0.0636482
50	0xbe9a43ec	-0.30129945
51	0x3e7d8211	0.24756648
52	0x3eb43ed4	0.35204184
53	0x3e04f6ba	0.12984744
54	0xbc8a11ac	-0.01685413
55	0x3dd3c846	0.103409335
56	0x3e837a4b	0.2567924
57	0xbdb30901	-0.08741952
58	0xbd12431a	-0.035708524
59	0x3da09383	0.07840636
60	0x3f0a64e4	0.54060197
61	0xbd8bd396	-0.06827466
62	0x3d853739	0.065046735
63	0x3f183984	0.5946276
64	0x3c631a70	0.013861284
65	0xbe3d44cb	-0.18483274
66	0xbf07c12d	-0.5302914
67	0xbcfd233c	-0.03090059
68	0x3f024da5	0.50899726
69	0xbe46ed4c	-0.19426459
70	0xbc0d5ac7	-0.0086276
71	0xbabc70c2	-0.0014376866
72	0x3d25ebb2	0.04050798
73	0xba924620	-0.0011159815
74	0x3d4f90b0	0.050675094
75	0x3f143b31	0.5790282
76	0x3cf2fea1	0.029662432
77	0xbea59786	-0.32342166
78	0x3e25eb9e	0.16203162
79	0xbdeaa5a2	-0.11457373
80	0x3dceef4b	0.10104235
81	0x3e404dff	0.18779753
82	0xbb64ec3a	-0.003493084
83	0xbd0ca522	-0.03433717
84	0xbda9b4cc	-0.082864374
85	0x3e4ba473	0.19886951
86	0xbd6ccd9e	-0.05781328
87	0x3ea6ba62	0.32564074
88	0x3dbc0f0f	0.0918256
89	0xbe6d9738	-0.23202217
90	0x3d3b1c5d	0.045681346
91	0x3d16771d	0.03673469
92	0x3e3eeef4	0.18645841
93	0x3dadccdf	0.08486342
94	0x3e1f9ec2	0.15587905
95	0xbd11ecf6	-0.035626374
96	0xbeabb6d8	-0.33537936
97	0xbc44062c	-0.011964362
98	0x3eef12c6	0.4669401
99	0xbe1cd884	-0.15316969
100	0x3dfd4db6	0.12368338
101	0xbe59b085	-0.21258743
102	0xbdbc3578	-0.09189886
103	0x3d57e6fb	0.052710515
104	0x3e23f527	0.16011487
105	0xbe339563	-0.17537455
106	0x3af15c28	0.0018414306
107	0x3e2addde	0.16686198
108	0x3d891961	0.06694294
109	0x3d815338	0.06314701
110	0x3db0c287	0.08630853
111	0xbdccee83	-0.1000643
112	0xbdd43409	-0.103614874
113	0xbe8db2ab	-0.27675375
114	0xbde706d4	-0.11280599
115	0x3d787714	0.060660437
116	0x3cefa212	0.029252086
117	0x3d5ad0d2	0.053421803
118	0xbe55925a	-0.2085661
119	0x3e4bb53b	0.19893353
120	0xbd8532ff	-0.06503867
121	0xbe317ce8	-0.17332804
122	0xbd4faea4	-0.05070366
123	0xbd8f074a	-0.06983812
124	0x3d181616	0.037130438
125	0xbdb0d490	-0.08634293
126	0xbd701aed	-0.05861943
127	0x3d584efe	0.052809708
128	0xbee42d1d	-0.4456567
129	0xbe10c0c3	-0.14136033
130	0xbf0d380e	-0.5516366
131	0x3ce707d3	0.028201973
132	0x3c02cf8b	0.007984052
133	0x3dd1c453	0.10242524
134	0x3eefef22	0.4686213
135	0xbe243610	-0.16036248
136	0xbe3fadc3	-0.18718629
137	0x3e536ff7	0.2064818
138	0xbd570f50	-0.052504838
139	0xbf46d0d6	-0.7766241
140	0xbc712fdc	-0.014720883
141	0x3d33d94d	0.043908406
142	0x3e1accbf	0.15117167
143	0xbe0a117a	-0.1348323
144	0xbe17a55b	-0.14809172
145	0xbccf8c18	-0.025335357
146	0x3e857c7a	0.2607153
147	0xbd8a1837	-0.067429
148	0x3db58f78	0.08865255
149	0xbe6d31c8	-0.23163521
150	0xbdf159bb	-0.11784693
151	0x3d8dbbdf	0.06920599
152	0x3dc54916	0.09633081
153	0xbe4005d7	-0.18752228
154	0x3d9e5e8f	0.07732879
155	0x3db0032a	0.085943535
156	0x3cab304f	0.020897059
157	0xbd3d4ec1	-0.046217684
158	0xbe95a35b	-0.29226193
159	0xbe265381	-0.16242792
160	0x3d3dc605	0.046331424
161	0xbea5eaf3	-0.32405815
162	0xbf3f8992	-0.7481929
163	0x3e555b7f	0.20835684
164	0x3d89a942	0.067217365
165	0x3df245fe	0.11829756
166	0xbb8f61da	-0.0043756785
167	0xbd44a19f	-0.048005696
168	0xbd5a292d	-0.053261925
169	0x3ddd01e8	0.10791379
170	0xbe545b95	-0.20738061
171	0xbe93b10a	-0.28846008
172	0xbea22e9b	-0.31676182
173	0xbdeb6fa5	-0.11495904
174	0xbe730cb8	-0.2373532
175	0x3e9af801	0.30267337
176	0xbf48ee8e	-0.78489006
177	0xbf024cbe	-0.5089835
178	0xbd428423	-0.047489297
179	0x3ea2fb64	0.3183242
180	0xbe838854	-0.25689948
181	0xbdd99ba5	-0.1062539
182	0xbc209491	-0.009801046
183	0xba99cd95	-0.0011734242
184	0xbe947cff	-0.29001614
185	0xbdc15602	-0.09440233
186	0x3dc02ac1	0.09383155
187	0x3dbdff34	0.09277192
188	0xbebf9566	-0.3741867
189	0xbd8a4bb1	-0.06752718
190	0xbb747155	-0.0037298996
191	0x3ecf9487	0.40543005
192	0xbcfd93ae	-0.030954208
193	0xbe24212b	-0.16028278
194	0xbe08c965	-0.13358076
195	0xbded4e88	-0.11587244
196	0x3d995408	0.07486731
197	0xbeaa83e2	-0.33303744
198	0x3d3a0bdd	0.04542147
199	0x3e26aa86	0.16275987
200	0x3dfa96c4	0.122357875
201	0xbb006d76	-0.0019596494
202	0xbf1a992b	-0.60389966
203	0x3d1f28cf	0.038857277
204	0x3d8487b1	0.064711936
205	0xbf0ad6b5	-0.54233867
206	0xbe012b08	-0.12614071
207	0x3db59bf1	0.08867634
208	0x3c5eab6c	0.013590675
209	0x3e976c3d	0.29574767
210	0xbe080de0	-0.13286543
211	0xbe36e5ba	-0.17861071
212	0xbdc62cc9	-0.09676511
213	0x3d37ffb1	0.04492158
214	0xbe73d831	-0.23812939
215	0xbdaee1d0	-0.08539164
216	0x3d539706	0.0516577
217	0xbdf5c6ca	-0.12000807
218	0x3c81642f	0.015794842
219	0x3e1a0978	0.15042675
220	0x3e0cbd80	0.13744164
221	0xbd8a718c	-0.067599386
222	0xbd29e529	-0.04147831
223	0x3d0dbdfc	0.03460501
224	0xbf1e5568	-0.6184907
225	0xbc8be4b8	-0.017076835
226	0x3dbdc558	0.09266156
227	0xbf09901c	-0.5373552
228	0xbd84e3e1	-0.06488777
229	0xbdd8c939	-0.10585255
230	0x3eb91f07	0.36156484
231	0x3e143ead	0.14477034
232	0x3eee7343	0.46572313
233	0xbe2af52c	-0.16695088
234	0x3e07a1f3	0.13245372
235	0xbdc8f611	-0.098125584
236	0x3d32e9c3	0.043679964
237	0x3e3e7a87	0.18601428
238	0x3ba02837	0.0048876065
239	0xbf02a5ba	-0.5103413
240	0xbf11a4c7	-0.56892055
241	0xbf143725	-0.57896644
242	0x3da578f3	0.0807971
243	0xbee84c1c	-0.45370567
244	0xbe2e7038	-0.17034996
245	0xbe001a60	-0.12510061
246	0xbeb29a7d	-0.3488349
247	0x3e35fc5f	0.17772053
248	0x3dcba0e0	0.09942794
249	0xbf3e32fb	-0.7429654
250	0x3dd92bf0	0.106040835
251	0x3e05e840	0.13076878
252	0x3e59cb17	0.21268879
253	0x3db5cf16	0.08877389
254	0xbe4c9852	-0.1997998
255	0xb9cd3bcf	-0.00039145208

fc3.bias f4 [4]
0	0x3d11e9fe	0.035623543
1	0xbcd4a45c	-0.025957279
2	0x3d2f55bc	0.042806372
3	0xbd1ad289	-0.03779844
