checkpoint_critic.pth (torch_old, 169954 bytes, 5 tensors)

fcs1.weight f4 [256, 33]
000000 b7 f5 69 bc 78 df cf 3d f2 aa a4 3c bd d7 ba bd
       -0.014279774 0.10150045 0.020101044 -0.0912318
000010 33 f7 5e 3d 2b 21 ab bd db 7c df bc 83 21 37 bd
       0.054434966 -0.08355936 -0.027281215 -0.044709694
000020 75 ff 9e bb 07 f2 c1 3c ec b3 80 bc 53 15 df 3d
       -0.00485223 0.023674978 -0.015710793 0.10892739
000030 8b 76 8d 3d fd 87 33 3d bd 61 bb 3d ec a2 5d bc
       0.06907376 0.04383086 0.091495015 -0.013527613
000040 8e ec 06 bc 5a 5e 80 bd c2 6b 53 bd 66 e0 6b 3c
       -0.00823511 -0.06267996 -0.051616438 0.0143967625
000050 d6 7c 4f bc 69 d0 91 3d ad f3 cc 3d d5 de 2f 3d
       -0.012664041 0.07119829 0.10007415 0.04293712
000060 89 5a 7e 3c 0e 46 0d 3d 4b 72 0c bd ac d1 76 bc
       0.015524515 0.034490637 -0.034288686 -0.015064638
000070 4e e6 1e 3c 80 6a 4e bd 2a 05 3d bd be 99 25 3d
       0.009698464 -0.050394535 -0.046147503 0.040429823
000080 89 15 c0 bc 13 17 cd bc 23 bb c9 bd eb 7c 81 bc
       -0.023447769 -0.025035417 -0.098501466 -0.015806636
000090 12 6a b3 3c 82 17 ad bc 53 59 c2 ba 7c 7c 00 3c
       0.021901164 -0.021129373 -0.0014827646 0.007842179
0000a0 3a e2 17 bd 6b 4c f1 3c b1 21 82 3c 1b 2b cf 3c
       -0.03708098 0.029455384 0.015885206 0.025289109
0000b0 b8 52 98 3c a4 4e a9 3c d0 94 00 3d 05 89 83 3d
       0.01859413 0.020667382 0.03139192 0.06422619
0000c0 33 aa 03 3d af 0e 90 bb f9 6b 25 3d d3 5c 67 3d
       0.032144736 -0.0043962817 0.040386174 0.05648501
0000d0 1b bf ed bc c2 9e 81 ba 9b de 9b bd 3e 94 00 bb
       -0.02902179 -0.0009889232 -0.07610818 -0.001961961
0000e0 22 61 a7 bc 89 12 7c ba b1 9f b9 3c e2 fb 89 bd
       -0.020432059 -0.0009615799 0.022659155 -0.06737496
0000f0 db 64 b9 bd f5 f3 82 3d 30 f6 a3 3c bd 9c 9c 3d
       -0.0905244 0.06394187 0.020014852 0.07647083
000100 a0 9a 9d 3b 6b a4 bb 3b bd 72 2d bd bd 04 34 bc
       0.0048096925 0.0057263873 -0.04234575 -0.010987458
000110 8b ce 24 bc a4 cb 0e bb 4a b5 6c 3b 5b 3e 68 bd
       -0.010059009 -0.002178886 0.00361188 -0.05670009
000120 35 dc c4 bd e0 3c b2 3c 88 67 84 bd f5 9c ad 3d
       -0.09612314 0.021757543 -0.064650595 0.08477203
000130 a9 24 aa bc d7 f6 59 bc 2c 77 27 bd e2 e9 ca bd
       -0.020769434 -0.01330348 -0.040885136 -0.09907891
000140 34 fa a8 3d 7c 56 5a bd bf 2a 2e 3d 1c 9f a6 bc
       0.082508475 -0.053305134 0.042521235 -0.020339541
000150 5f 37 fc bd 22 1d cd bd 19 a0 05 3b fc 6e 1b 3c
       -0.12315249 -0.10015322 0.0020389615 0.00948691
000160 1f bd 92 bc 38 be a0 3c 32 53 51 3d f7 6d a5 bd
       -0.017912446 0.019621953 0.05110473 -0.08077615
000170 a3 24 84 3d 1b c2 8a 3d 97 f5 9a 3b 40 2e 51 bb
       0.064523004 0.06775304 0.0047289836 -0.0031918436
000180 5c e7 1a ba 1e 99 5e bd 9f a2 c7 3b db 03 69 3d
       -0.0005909109 -0.054345243 0.006092384 0.056888442
000190 64 b5 a1 bc 20 9a 52 3d 6e 55 4a 3b 8f 61 20 bb
       -0.019739814 0.051416516 0.0030873674 -0.0024472212
0001a0 e1 20 f2 bc e5 6f 83 3d dd da ed 3b 43 39 77 bd
       -0.029556694 0.064178266 0.0072587566 -0.060357343
0001b0 ce 1a 99 3c 0f c2 6e ba d8 18 17 3c 23 3b 34 bc
       0.01868954 -0.00091078965 0.009222232 -0.011000427
0001c0 32 3c c0 bc 84 2b 4a 3d b7 36 8f bd 7c 60 1c bc
       -0.023466203 0.049357906 -0.06992858 -0.009544488
0001d0 a2 d5 95 3c 26 07 4c 3c 69 b8 ea bc 77 c7 9c 3c
       0.018290345 0.012452876 -0.028652387 0.019138081
0001e0 53 0d 50 bd 4d db ac bc 98 97 52 bd ce ee d5 ba
       -0.050793957 -0.021100665 -0.051414102 -0.001632178
0001f0 61 bf c3 bc 1b ea 54 3c 41 26 37 3d 24 3b 79 bc
       -0.023894968 0.012995268 0.044714216 -0.015211854
000200 b8 a0 ca bc a5 3e 6e 3d 80 c6 33 bc d8 a1 a9 3d
       -0.02473484 0.05816521 -0.010972619 0.08282822
000210 3f 01 0a bc 61 c6 b4 bb 95 e6 84 3d f9 38 8b bd
       -0.008423149 -0.0055168127 0.064892925 -0.06797976
000220 b1 76 0e be 1d 33 c2 3c c4 9d 79 3d f7 a4 b8 bc
       -0.13912465 0.023706013 0.060941473 -0.022539599
000230 7f 13 38 bd 4a 24 d8 3d 5a 67 3d 3b fd 1b cd 3b
       -0.044940468 0.105537966 0.0028900714 0.00625944
000240 34 f5 99 3c 44 38 1c 3d b3 09 8d bc ab 75 be 3c
       0.01879368 0.038139597 -0.017216539 0.023249468
000250 80 ef 65 bd ab 0a c6 bd dc 3f 93 bd 18 e3 3a 3c
       -0.056136608 -0.096700035 -0.071899146 0.011406682
000260 18 19 b0 bb 34 96 af 3b ea aa b5 3c e6 16 c0 3d
       -0.005374085 0.005358482 0.022176225 0.093793675
000270 c4 bf b3 bc 8a de f9 3c d0 f9 54 3a c6 b0 a3 3d
       -0.021942027 0.030501623 0.0008124383 0.07992701
000280 ed 8f 97 bc 58 d9 92 3c 87 1b b3 bd 94 a1 88 3c
       -0.018501246 0.017925903 -0.08745485 0.016678609
000290 47 ee 60 be d6 97 f2 3c 32 2d de 3b 79 e3 a1 bc
       -0.21965896 0.029613417 0.00678029 -0.019761788
0002a0 25 8f 0a bc 8d ab a8 3b 4b 44 d2 3c 32 42 6f 3c
       -0.00845698 0.0051474036 0.02566733 0.014603185
0002b0 91 a7 bd 3d 4b c6 65 bd 94 dd 08 3c 36 bb 56 3d
       0.092604764 -0.05609731 0.00835361 0.052424632
0002c0 83 dd 36 3c e5 cb 2a bd 45 92 a0 3d 56 aa 72 bd
       0.011161211 -0.041698355 0.07840399 -0.059244476
0002d0 b3 6d e6 3a 3c ac c0 3d a7 5f b6 3d 98 1b 8f bc
       0.00175803 0.09407851 0.08904963 -0.017469212
0002e0 ce 18 4b 3c 5b 12 92 bb dd 72 8b bd cb 68 89 bd
       0.012396051 -0.0044577545 -0.06809018 -0.06709441
0002f0 2c 5f 72 3c 70 c2 64 bd 6b f5 5a 3d 54 33 cc bd
       0.014793199 -0.055849493 0.053456705 -0.099707276
000300 ff e0 8f 3d 23 22 57 3d a4 1a 44 3d 79 a7 87 bd
       0.070253365 0.05252279 0.04787697 -0.0662374
000310 c8 80 19 3c fb b4 96 be b9 28 14 3e 0f 2b 86 bd
       0.009369083 -0.29434952 0.1446866 -0.065511815
000320 77 0c 7a bd ed d3 a0 bd 56 f4 03 3d 5a c7 2e bb
       -0.061047044 -0.07852922 0.03221544 -0.0026669116
000330 07 69 27 3d 5c 5b 24 bd 7a 82 9b 3d d0 57 32 bc
       0.040871646 -0.04012619 0.07593246 -0.010885194
000340 f7 0d 8d 3d 83 07 a6 bc 05 8a 46 3d 97 5a 86 3c
       0.06887429 -0.020267254 0.04847147 0.016400618
000350 19 69 95 3c 75 a2 19 bd 32 4c 2b 3d 00 4f de 3b
       0.018238591 -0.037508447 0.041820712 0.00678432
000360 9a 20 1c 3d c7 d8 6d 3d 41 d7 55 3d a9 9e f3 bb
       0.03811703 0.058068063 0.052207235 -0.0074346852
000370 40 73 0d bc 1a 51 04 3b 8d 38 07 3d 3a b1 77 3c
       -0.008633435 0.0020189942 0.033012915 0.015117938
000380 c2 11 71 bd a5 f1 cc 3c fb 61 25 3d 64 81 43 bd
       -0.058854826 0.025017569 0.040376645 -0.04773082
000390 bc 54 51 bd 80 9d be 3a 21 7c f6 3d 28 b0 14 3c
       -0.0511062 0.0014542788 0.120353945 0.009075202
0003a0 0c 76 88 bc 47 77 4a bc 61 b0 af bd c8 bb 99 3c
       -0.016657852 -0.0123575395 -0.085785635 0.018766299
0003b0 58 a7 4c bd 86 36 26 3d c2 d2 c9 3d 2c c8 4a bc
       -0.04996428 0.04057934 0.09854652 -0.012376826
0003c0 6a 4f 16 bd 34 86 08 be 0d a6 a9 bb ce 54 58 bd
       -0.03669683 -0.13332444 -0.0051772655 -0.05281525
0003d0 8b 7d 9e 3c 81 eb 29 3b c9 c4 14 bd 49 9e 1f be
       0.019346973 0.0025927725 -0.03632048 -0.15587725
0003e0 da 8a 6c bd a6 76 96 3c d7 f9 f0 bb 27 4b 04 3d
       -0.057749607 0.018367123 -0.007354002 0.032298233
0003f0 29 db 45 bc 3a 65 6a bd 3c e3 12 bc 4b 1c 55 bc
       -0.012076178 -0.057225443 -0.00896531 -0.013007234

fcs1.bias f4 [256]
000000 64 7a 4d 3d 21 5a 47 3e c8 c6 94 bd 14 fa 1c 3e
       0.05016555 0.19467975 -0.07264477 0.15329772
000010 c1 13 5c bd d2 d7 58 be 61 cc 1e be a1 fd 13 be
       -0.053729776 -0.21176079 -0.15507652 -0.1445222
000020 56 20 ab 3c a0 0b d0 3d d8 89 00 bd a0 a8 12 bd
       0.020889442 0.10158467 -0.031381458 -0.035805345
000030 66 0a b8 3d 9e 61 b6 bd 91 df 26 3d b5 1d 99 3a
       0.08986358 -0.08905338 0.040740553 0.0011681827
000040 e6 51 09 be 5b cc f8 bd 40 62 05 3e ab 0a 0b be
       -0.13410148 -0.12148353 0.1302576 -0.13578288
000050 47 dc 5f 3d 32 ce 6b bc c0 02 27 3d 09 6f bc b9
       0.054653432 -0.0143924225 0.040774107 -0.00035940882
000060 b9 a5 0d bd 31 66 98 bd 8e b2 3c 3d d8 94 64 bd
       -0.034581874 -0.074413665 0.04606872 -0.05580601
000070 50 ff ad 3d bf e5 83 3c 1e 9e 6e 3d 9b e6 14 be
       0.084959626 0.016100762 0.05825626 -0.14541094
000080 cd 19 31 be c4 61 84 bd 3b d6 5e 3d 94 7e 59 bd
       -0.17294998 -0.0646396 0.054403525 -0.05309923
000090 d1 9e 18 3e 81 29 9d 3d 46 05 b2 bd e6 5a cd 3d
       0.14904334 0.07673932 -0.08692412 0.10027103
0000a0 6d 44 96 bd 7c 4b 5e bd e5 ae 45 3d 74 3e dc bd
       -0.0733727 -0.054271206 0.048262496 -0.107540995
0000b0 59 3c 09 bd 43 68 4e be 5f 68 fc 3d 69 b8 a9 3d
       -0.033504818 -0.2015696 0.12324595 0.082871266
0000c0 2b 09 2f 3e 06 9b a0 bd be 0c f0 bd 24 1a 98 3d
       0.17093341 -0.078420684 -0.117211804 0.07426861
0000d0 16 ea 01 be 1d a6 ca bd 8e 55 18 be cd ed 82 3d
       -0.12686953 -0.09894965 -0.14876387 0.06393013
0000e0 62 80 81 bb 4a 93 b0 3c 5e 9f 64 3c b9 1d f2 bc
       -0.003952072 0.021554608 0.013954012 -0.029555188
0000f0 cd 7d d7 bd 57 ea 02 3e 38 e3 32 be c1 14 0a bd
       -0.105220415 0.12784706 -0.1746949 -0.0337112
000100 bf 09 e8 bd ef 0c 27 be 37 d6 94 3d 31 bf e8 3d
       -0.11329984 -0.16313528 0.07267421 0.11364592
000110 37 e0 58 3d 50 29 e4 bb e6 86 bd 3d db 31 22 3d
       0.052948203 -0.0069629326 0.092542455 0.039598327
000120 fb 09 08 3c da 6c 01 be 19 3f f7 bb 6d da b2 3d
       0.008303161 -0.1263918 -0.0075453636 0.08733068
000130 c7 e8 d9 3d a3 5d d9 bd 6a de e1 3d fb 7b ee bd
       0.10640102 -0.10613563 0.1102875 -0.11644741
000140 6d cb 9a 3c 1b f0 27 3e 08 aa 8a bb bf ef dd 3d
       0.01889583 0.16400187 -0.004231695 0.108367436
000150 7a 4d 1b 3e 8b 29 07 be 03 4c f5 3d 9c db b4 3d
       0.15166274 -0.13199441 0.11977389 0.0883095
000160 a8 87 b0 3d 4a 8f af 3d 74 01 0f 3e c9 4e 26 bc
       0.086196244 0.08572252 0.13965398 -0.01015062
000170 52 c8 cd 3d bc 9f 48 be 49 a9 55 be e7 c8 12 3d
       0.10047974 -0.19592184 -0.20865358 0.035836127
000180 19 4e 91 3d 5b 34 40 bd 1f 6f d8 3d 87 6f 92 bd
       0.07094974 -0.04692493 0.1056807 -0.071501784
000190 d9 70 0d 3e aa c7 36 bc 54 85 59 3d 47 f4 9e bd
       0.13812579 -0.011156002 0.053105667 -0.07761436
0001a0 1b d3 f7 bd 41 0e 0b 3d 8b 9e be bd b1 62 d8 3d
       -0.12100812 0.03394914 -0.093075834 0.10565699
0001b0 01 97 b7 3d 7f 3b 29 bd 10 5d f1 3d 3e 62 4a 3e
       0.089643486 -0.041316506 0.117853284 0.19764039
0001c0 e9 85 6a bd 51 47 b2 3d f3 86 c8 3d 34 bb 2d be
       -0.057256613 0.08705009 0.097913645 -0.16965944
0001d0 7a 30 4c 3c 3e b1 5f be 02 d0 36 3d 6c 61 35 be
       0.01246273 -0.21844956 0.044631965 -0.17712945
0001e0 a7 2e 8f 3d f6 6d 5d 3d 89 c4 09 3e 16 23 0c 3c
       0.0699132 0.054059945 0.13453878 0.008553287
0001f0 1f 01 65 bd 4b a1 1c 3e c9 89 ab 3d 56 76 e9 3d
       -0.055909272 0.15295903 0.0837589 0.11399524
000200 56 bc 34 3c 92 38 fe 3d e6 6a ab bd 32 86 0d be
       0.011031231 0.12413134 -0.08369999 -0.13820723
000210 d3 c3 1d bc c0 ac 7c 3d 6b 56 3d bd de e6 ab bd
       -0.009629208 0.061688185 -0.046224993 -0.08393644
000220 da 3e 28 be 14 69 b0 3d 27 8a 85 be 9b 81 0f be
       -0.16430226 0.08613792 -0.26081964 -0.14014284
000230 f2 56 3a 3d e8 fd e7 bd 3f 81 1e be 97 ee 1f be
       0.045493074 -0.11327726 -0.15478991 -0.15618359
000240 d4 18 f5 3d f6 c6 b4 bd 2f a1 03 bd f5 65 30 bd
       0.11967626 -0.08827011 -0.03213614 -0.043065984
000250 6f 17 e9 3c 07 fe 34 3e f0 0f fc 3c dd a4 a6 3c
       0.028453557 0.17675029 0.030769318 0.020342285
000260 4c 43 9a bd c0 d7 64 3d ae dc 2e 3e a8 47 7d 3d
       -0.07532367 0.055869818 0.1707637 0.061835915
000270 b1 1f 22 3e 4f df b2 bd 10 77 ea bb ba df 19 be
       0.15832402 -0.08733999 -0.0071553066 -0.15026751
000280 85 01 88 3d d6 05 d6 bd 41 bb 78 bd 49 74 39 be
       0.06640915 -0.10450332 -0.060725454 -0.18110766
000290 dd b1 2f 3d 36 d4 17 3d 24 2e 13 3e a4 16 4f 3c
       0.042894233 0.037067614 0.1437307 0.012639675
0002a0 9b 5c 34 bd 02 a4 d1 3d 83 41 91 bd 2b 51 16 3e
       -0.044033628 0.1023636 -0.070925735 0.146794
0002b0 28 6a 30 3e aa 2c 12 3e c5 83 b2 3d 94 26 97 3d
       0.17227995 0.1427485 0.08716539 0.07380405
0002c0 33 82 f5 3d 8a 74 49 bd 41 96 36 3e 87 eb bc bd
       0.11987724 -0.049183406 0.17830755 -0.09224611
0002d0 8d f4 42 bd 88 f6 be 3d a2 b0 f7 bd c8 a2 0d bd
       -0.047596503 0.09324366 -0.12094237 -0.03457907
0002e0 c0 9d 20 bd 82 e6 06 3d ee b5 70 3c cc e2 41 bd
       -0.039212942 0.032934673 0.014691813 -0.04733543
0002f0 a1 8a be bc 15 b1 61 3e d8 f7 2f bd ee 1d 07 3e
       -0.023259463 0.22040208 -0.04296097 0.13195011
000300 72 a2 92 bd cf f9 14 3e a1 44 1a 3e 6e ca 03 3d
       -0.0715989 0.1454842 0.15065242 0.032175474
000310 c9 7b b4 bb 60 82 d3 bd ea da c6 bd 64 3e 02 be
       -0.0055079204 -0.103276014 -0.09709723 -0.12719113
000320 04 1b ab bd 5a 16 18 3d e5 c9 8c 3d 1a 62 07 be
       -0.08354762 0.03713069 0.06874446 -0.13221017
000330 cf 5a 95 3d 87 d6 06 bb 90 19 f5 3b 95 a6 b8 3d
       0.07292711 -0.0020574646 0.007479854 0.09016148
000340 64 33 16 be 2a 3f 75 bc e6 f2 0e 3e c4 cd e7 3d
       -0.14668041 -0.014968673 0.13959846 0.113185436
000350 a5 c5 d9 3d 86 9b 95 3b 3b 60 7a 3c 63 cf 14 3e
       0.10633401 0.004565659 0.015281732 0.14532237
000360 1d 04 cb 3c a8 2f 1b 3e 2d 95 c7 3c c4 32 5c 3d
       0.024782235 0.15154898 0.024363125 0.05375935
000370 91 52 5a 3d e5 8d 18 be 5a f1 2c be 18 64 4b be
       0.053301398 -0.14897878 -0.16888943 -0.19862401
000380 b3 38 45 3e 7d 33 af bd 17 de 4f be ec ca 4b 3d
       0.1925991 -0.085547425 -0.20299564 0.04975407
000390 c1 5f 76 bd 86 98 a2 3c ad c2 a4 bd 24 2a 9a 3d
       -0.06014991 0.01984812 -0.08044944 0.07527569
0003a0 73 8b 06 be b9 bc 4d be bb cb f5 3d 4f e8 fe bd
       -0.13139133 -0.20091523 0.12001749 -0.12446653
0003b0 51 d3 36 3d 51 c0 9e 3d 34 3f fd bb 6b 08 c5 bd
       0.04463512 0.07751525 -0.0077284817 -0.09620746
0003c0 82 1a cc 3c 96 4d cd bd c2 a0 01 3e bd 72 42 bd
       0.024914984 -0.10024564 0.1265898 -0.047472704
0003d0 63 35 d9 3d 6a b3 b6 3d 2d 10 04 3e 2b 6c dc 3d
       0.10605886 0.08920939 0.12896796 0.10762819
0003e0 c8 a3 fb 3d 26 8a 0b be 74 5b 99 3d 82 e5 c8 bd
       0.12287098 -0.13626918 0.074881464 -0.098094
0003f0 0b 22 ca 3d 68 dd 88 bd 41 09 97 3c 6a 7f bb 3d
       0.098697744 -0.06682855 0.01843703 0.09155162

fc2.weight f4 [128, 260]
000000 bf 9a 2c 3d 34 6f ce 3c 05 7f d0 3d 58 d7 e5 bc
       0.042139765 0.02519951 0.10180477 -0.028056785
000010 cf 90 fd 3d ef 8d 72 bc 9d 78 98 bd 67 6d 9f 3d
       0.12381136 -0.014804347 -0.0744488 0.07784539
000020 5a 68 a1 bc 57 36 b8 bd ec 0f 84 3d d0 3f b2 bc
       -0.019703079 -0.089947395 0.06448349 -0.021758944
000030 d9 aa 84 bd 30 f6 26 3d 9a d8 7e bd d1 e5 46 3d
       -0.06477899 0.040762126 -0.062218286 0.048559014
000040 f9 46 04 bc 3a 3d fd bc 2a c3 1d bd 01 af f7 bc
       -0.008073562 -0.030912984 -0.0385162 -0.030234816
000050 8f 60 7a 3d ee 8a a5 bd 57 57 08 3d de 2f 96 bd
       0.06112724 -0.08083139 0.03328642 -0.07333349
000060 24 6c 70 3d 2d 9d 45 bd 1e 17 1e 3d c0 9c 1c be
       0.05869688 -0.048245598 0.038596265 -0.1529417
000070 1d 24 da 3d 65 58 f8 3b 18 5f b3 3c cb 93 5f 3b
       0.10651419 0.007578897 0.02189593 0.003411519
000080 67 92 63 bd 9b ea 23 3c e2 f3 fb 3d 11 7e 13 bd
       -0.055559542 0.010004665 0.12302376 -0.0360089
000090 09 dc 6a 3c 51 d5 7b bd fd e8 6f 3d f3 93 e4 bc
       0.014334687 -0.06148273 0.058571804 -0.027902579
0000a0 75 0a 21 be ba 54 35 3d 1e 84 97 bd 6e 9d 24 3d
       -0.15726645 0.044270255 -0.07398246 0.0401892
0000b0 15 db bb 3c e8 58 56 bc c8 93 12 3d 07 45 82 bd
       0.022931615 -0.01308272 0.035785466 -0.06360822
0000c0 f3 34 64 bc d5 00 66 bd 99 53 00 be 02 85 64 3d
       -0.01392864 -0.056153137 -0.1253189 0.05579091
0000d0 7c e9 8b 3d 69 ca 97 bd ab eb 96 3c a1 aa 22 bd
       0.06831643 -0.074116535 0.018422922 -0.039713506
0000e0 37 9b 72 bd fc 1e d4 3d 31 9d c8 bd d5 4d 46 3d
       -0.059230056 0.10357472 -0.09795607 0.04841407
0000f0 17 e3 10 3d a1 03 81 3d b2 ba 84 3d 4a 1f 26 3d
       0.03537282 0.0629952 0.06480922 0.040557183
000100 3b 0e 07 3d 16 39 9c bd 93 6b 8f bc 76 6c 30 3d
       0.032972556 -0.07628076 -0.01750735 0.043072186
000110 9f 2a c5 bb 62 d1 d3 bd 5a b3 fb bd 93 4d 0c bd
       -0.0060170437 -0.10342671 -0.12290068 -0.034253668
000120 54 ba 20 3d 12 8d ac 3c 58 7b 4f bd af fa 0b bb
       0.039240196 0.021063361 -0.05065474 -0.0021359136
000130 77 d4 b4 bc 09 cc cc 3d 03 e4 50 3d 72 21 c2 bd
       -0.022073967 0.09999854 0.0509987 -0.094790354
000140 0d a6 a2 bd ae 1b 3e bd a0 9e a2 bd fe 35 0f bd
       -0.07941828 -0.046413116 -0.079404116 -0.0349636
000150 48 87 04 3d d8 c0 18 3d 1d 8c 31 bc 2a e2 ee 3c
       0.032355577 0.037293285 -0.010836628 0.029160578
000160 e7 25 b2 bd 8c 56 7e bd ff 9d 97 3d 92 62 a7 bc
       -0.086986355 -0.062094256 0.07403182 -0.020432744
000170 64 db 0b 3d ac 9c 0e bd 95 0e 2f 3d 31 e3 0f 3d
       0.034144774 -0.034817383 0.042738516 0.035128776
000180 d4 d6 44 3d 84 d8 fa bd f3 83 c2 3c 34 af 0a 3e
       0.04805644 -0.12248328 0.023744559 0.13543397
000190 13 5d e6 bd 89 bc 52 bd e5 7b df 3c 44 95 84 3d
       -0.11248221 -0.051449332 0.027280757 0.06473783
0001a0 dc 31 8b bd 44 d3 64 3d 62 cf 85 3d 5e d8 d7 3d
       -0.06796619 0.05586554 0.06533696 0.10539316
0001b0 2b 67 b3 3d 79 01 60 3d 33 54 4d bc 6c d1 b7 3d
       0.08759912 0.054688904 -0.012532282 0.08975491
0001c0 c5 8e 3f 3d 79 68 a3 bc a3 7e 04 3d 48 1e 4b bd
       0.046767015 -0.019947277 0.032347333 -0.049589425
0001d0 57 2a c5 bd 6f 5b af bd 62 fc 95 bc 76 8f c1 3b
       -0.09627216 -0.085623614 -0.018308822 0.0059069945
0001e0 ba cf 86 bd db 5f 29 3d 2b df ca bd f3 59 1a be
       -0.065825894 0.04135118 -0.09905847 -0.15073375
0001f0 68 91 3d 3d 3f 4d 69 bc 4d 25 ca 3d ce 80 03 bc
       0.04628125 -0.014239608 0.09870396 -0.008026315
000200 b1 fa 71 3b 79 06 c4 3d ef 3b 36 bd 68 46 98 3d
       0.0036923105 0.09571547 -0.04449075 0.07435304
000210 71 8a 93 3d d8 15 35 be dd d9 1c be 7f 6c b1 3d
       0.0720414 -0.17684114 -0.15317483 0.08663272
000220 32 d3 9d 3d d0 d4 94 bd 66 90 1c bd b8 64 e1 3d
       0.07706298 -0.07267153 -0.038223647 0.11005539
000230 3b 91 48 3c 07 52 52 bc 16 c3 1e 3d ab a4 54 bd
       0.012241657 -0.01283694 0.038760267 -0.051914852
000240 8b 41 b8 3d 7e 5d b3 bd fe dc 29 3c 26 c0 70 bc
       0.08996876 -0.087580666 0.01036763 -0.014694249
000250 37 07 d6 3c 73 04 9d bd 09 cb be bc 6a 4a 4c 3d
       0.026126487 -0.07666864 -0.023290174 0.049875654
000260 9a 4e c4 bb b1 56 8b 3d 9f b1 c9 3d 30 70 93 bc
       -0.0059908153 0.068036444 0.09848332 -0.017997831
000270 f3 87 a4 bd 18 b2 cb 3d a1 34 a6 3c 5b 53 c4 3d
       -0.08033743 0.09946078 0.020288767 0.09586211
000280 8b ea 0f bd 82 61 99 3c 75 13 a8 3c 2b 9b 83 3d
       -0.035135787 0.018723253 0.02051709 0.0642608
000290 e0 dd 78 3d 7e 9d c9 bd 43 4a 65 3d ed e9 8a 3d
       0.06075847 -0.098444924 0.055979025 0.06782899
0002a0 90 a7 82 3d c8 85 8d bd 9f 96 94 3d 78 c9 98 bd
       0.06379616 -0.069102824 0.07255291 -0.07460302
0002b0 fe 30 0d bd ee eb 1b bd f9 5d 1f 3d e0 4b bc bd
       -0.03447055 -0.038066797 0.03890798 -0.091941595
0002c0 3c c4 15 bd 12 e5 87 bd e1 1e 99 3c f6 69 43 3d
       -0.036564097 -0.066354886 0.018691482 0.047708474
0002d0 a2 09 f9 bd 4f 2e ca 3d 27 3e cf bd 1b 31 3b 3d
       -0.121600404 0.09872114 -0.101192765 0.045701127
0002e0 7e a2 33 be 36 ef a4 bc 66 4d b1 bc 6f a6 d8 bc
       -0.17542455 -0.020133596 -0.021643352 -0.02644655
0002f0 c4 10 d7 3d 85 11 70 3d 78 a8 a5 bc 8a d2 01 bd
       0.10501245 0.058610458 -0.020221934 -0.031694926
000300 36 2c 24 3b d2 9f dd 3d 37 e0 df 3c 4f 50 90 3a
       0.0025050766 0.10821499 0.027328594 0.0011010262
000310 35 83 aa 3d 10 07 e9 bd a4 f7 94 3d c6 c3 2f bb
       0.08325807 -0.113783 0.07273796 -0.002681957
000320 61 8a 9f bc d1 a3 46 3d e3 b2 f5 bc 40 d1 b0 3c
       -0.019475164 0.04849607 -0.029992526 0.021584153
000330 3b 98 73 bd 7c 24 b3 3c 95 3d 14 3d 6b da 13 3c
       -0.05947135 0.021867983 0.03619154 0.009024243
000340 f9 46 37 bd 6c d0 9e bc 92 9e a9 bc 3b b7 67 3b
       -0.04474542 -0.019386493 -0.020705495 0.0035357017
000350 5b 3c 4f 3d f0 63 81 3a d8 7f 76 3c d8 28 da bd
       0.05059467 0.0009871703 0.015045129 -0.106523216
000360 e9 96 78 3c c9 c8 f4 3c 26 1c a4 bb c7 ae be bc
       0.015172699 0.029880898 -0.0050082384 -0.0232767
000370 00 a6 dd bb e9 f6 be 3d a7 3c 15 bd 00 dd ab bd
       -0.0067641735 0.09324438 -0.036434796 -0.08391762
000380 c1 9a 12 3d e5 45 30 bd 13 9b 9a bd 8f 91 14 3b
       0.035792116 -0.043035407 -0.07549109 0.0022669767
000390 f0 b7 1a be 4b 6d 3d 3d c3 f1 c4 3d f3 a8 d3 3d
       -0.15109229 0.046246808 0.09616425 0.10334959
0003a0 ae 67 a2 bc 2e 59 01 3d 44 5b 11 3d 3b 39 8b bd
       -0.019824829 0.03157919 0.03548743 -0.06798025
0003b0 af b1 8c bc 00 dc 3d bd fc 50 88 bc d6 74 38 3d
       -0.01717457 -0.046352386 -0.016640179 0.0450333
0003c0 75 1d 8b bd 2b bf e9 3d ba 95 d8 3c b6 1f bf bc
       -0.06792728 0.114134155 0.026438583 -0.02333055
0003d0 c6 c5 62 3d a0 24 33 bd 04 b5 19 bd 38 15 75 bc
       0.055364393 -0.0437361 -0.037526146 -0.014958672
0003e0 2e 54 1e bd 6d e7 26 3d 74 5b 36 bd ff 3c 0e 3d
       -0.0386545 0.04074805 -0.04452081 0.03472614
0003f0 74 d3 86 3c 42 ff 9c 3d b1 dc 96 bd cd 6c 8e bb
       0.01645825 0.07665874 -0.07366312 -0.004346466

fc2.bias f4 [128]
000000 09 f7 99 3c 21 b6 33 bb 48 e0 3d 3d c6 5a 88 bd
       0.018794553 -0.002742179 0.04635647 -0.06657939
000010 77 ca 07 bd 92 07 11 3d 52 12 ce bd 9f bf c8 3c
       -0.03315207 0.03540761 -0.10062088 0.024505435
000020 af 33 73 3d 60 bf 35 3c 92 1e 7d 3d 3d 5a b5 3c
       0.05937546 0.011092991 0.061796732 0.022137756
000030 32 63 d7 bc 40 8b b3 bd f8 52 33 bd 02 62 9d bd
       -0.026292417 -0.08766794 -0.043780297 -0.07684709
000040 1b 60 c1 3c a5 b1 ce 3b fc 9a bd 3b ee 29 f2 bc
       0.023605397 0.006307798 0.005786298 -0.02956101
000050 b2 c2 b7 3d 66 7f bc 3d c1 b4 25 bd 16 a7 71 bd
       0.08972682 0.09203987 -0.040455583 -0.058997236
000060 fc 47 cf 3d 45 78 65 3d b0 c8 0f 3e d1 5e 55 bd
       0.10121152 0.0560229 0.140414 -0.052092377
000070 50 8a 85 3d 03 f9 4e bd 47 2f 4e 3d c4 34 24 bc
       0.06520522 -0.050530445 0.050338056 -0.010022346
000080 5c 16 f5 3c 52 26 68 bd 83 7c ff 3c fe 4c 8a bd
       0.029917888 -0.05667717 0.031187302 -0.06752966
000090 1a a2 e5 3d b6 e7 2e bd c7 55 fb 3d 00 45 d5 b9
       0.11212559 -0.042701446 0.1227222 -0.00040677935
0000a0 17 6a 02 3d 0a 85 17 3c d6 e1 12 3d da 80 cc bd
       0.031839456 0.009248028 0.035859905 -0.09985514
0000b0 9b 8b 1c bd d0 08 04 3e b4 60 9d 3d f1 7d 09 bd
       -0.038219076 0.12893987 0.0768446 -0.033567373
0000c0 67 8c d2 3d 64 8f ed 3a b4 ce 96 bd 44 e6 bc bd
       0.10280686 0.0018124399 -0.07363644 -0.09223607
0000d0 48 8f 5b 3d da 2f 1d bd d3 ad af 3b fc be ab bd
       0.05360344 -0.038375713 0.0053612976 -0.08386037
0000e0 4a 7e e8 3d 35 4c a9 39 d7 4b f3 bc 53 53 29 bd
       0.11352213 0.0003229097 -0.02969925 -0.04133923
0000f0 85 0c c0 bd c2 f5 9a bc e4 12 c5 3d 83 10 1f 3e
       -0.09377388 -0.018916015 0.09622744 0.15533642
000100 dc c5 82 bc f6 f6 73 3d 35 38 6e 3b 70 21 88 3d
       -0.015963487 0.059561692 0.003634942 0.06647003
000110 e5 ce 98 3d 52 01 09 3e 51 a9 20 3c 60 9f ec bc
       0.07461337 0.1337941 0.009805993 -0.02888459
000120 f5 36 db 3c 75 f4 ad 3c ae fd 72 bd d0 9e e2 bb
       0.026759604 0.02123473 -0.05932396 -0.0069159046
000130 96 bd df 3d 80 c1 a3 bd 21 85 2a bc ab 5e 99 bd
       0.109248325 -0.079958916 -0.010407717 -0.074887596
000140 86 b9 84 3d 4f 42 8b 3d fd 61 43 bd 2d cf 88 bc
       0.06480698 0.06799757 -0.04770087 -0.016700352
000150 11 16 a5 bd 5f 05 e9 3d b4 61 1a bd 6f 3f d6 3d
       -0.080608495 0.113779776 -0.037690833 0.10461318
000160 4e c6 a9 3d b4 3a 0e 3e f4 7f 04 3e 26 e1 7e 3d
       0.08289777 0.13889581 0.12939435 0.062226437
000170 de 31 34 bd 16 4d e7 3c 29 d6 d4 bc 70 60 c7 3b
       -0.04399287 0.028235 -0.025981026 0.0060844943
000180 71 4e b8 bd fe 45 31 bd 83 35 03 3e 7d 50 46 3c
       -0.089993365 -0.04327964 0.12813382 0.012104151
000190 d8 27 92 bc 63 c4 81 3d a3 7e 29 bd de ce c7 3d
       -0.017841265 0.06336286 -0.041380536 0.09756254
0001a0 03 23 4a bc 1c 52 89 bb a0 f8 f4 3c 6c 2a 89 bd
       -0.012337449 -0.0041906964 0.02990371 -0.066975445
0001b0 8d dd fe 3b 1a 25 26 3c 78 e0 9b 3b 2b d2 26 3b
       0.0077778758 0.010140682 0.0047569834 0.002545486
0001c0 a9 88 42 3d 37 53 67 bd e8 66 4f 3c b3 d5 7b 3d
       0.04749361 -0.056475844 0.012658812 0.061483096
0001d0 5c f1 41 3c 0a cf 5b 3d 73 a7 8b bd 56 93 27 bd
       0.01183733 0.053664245 -0.06819048 -0.040911995
0001e0 78 04 37 bd 27 c5 1b 3d 35 66 c7 3d b9 e5 89 3c
       -0.044681996 0.038029816 0.09736291 0.016833173
0001f0 89 ae 5b 3d 59 df d7 bd 0f 37 83 bd d4 a3 e5 3d
       0.053633247 -0.10540647 -0.06406986 0.11212888

fc3.weight f4 [1, 128]
000000 37 a6 4b 3d 3d a1 25 be ee 00 65 3d fc f2 d1 bd
       0.04971906 -0.16174789 0.05590909 -0.10251424
000010 57 9f e5 bd c3 69 81 3d 0f aa 72 bd 77 40 80 3d
       -0.11212032 0.063190006 -0.05924421 0.06262296
000020 80 24 9d 3d 27 52 60 be a4 bc 2d 3d 0c 1b b7 bd
       0.076729774 -0.21906339 0.04241623 -0.08940706
000030 d7 cd cf bd 6e 06 47 be 6b 8d 7d be 2d 59 dd bd
       -0.10146683 -0.19436046 -0.24760978 -0.108080246
000040 c8 fc bb bd 70 95 82 3d 19 5e 43 3d 37 18 c9 bd
       -0.091790736 0.06376159 0.04769716 -0.09819072
000050 c1 c7 43 3d f5 89 77 3d 23 3b 86 be e9 03 5e bd
       0.047797922 0.0604343 -0.26216993 -0.054202948
000060 94 53 b6 3d 86 a4 51 3d 5d 10 ea 3d 1a a9 e1 bd
       0.0890266 0.051182292 0.11428902 -0.11018582
000070 de 56 35 3e a7 55 5a be eb 06 82 3d c6 4c be bd
       0.17708918 -0.21321736 0.06348976 -0.09291987
000080 7f 6c 60 3d 34 c6 0d be ef da a2 3d bc f9 f9 bd
       0.05479097 -0.1384514 0.079519145 -0.12205836
000090 68 87 b4 3d 89 7b c0 3d 58 6a 71 3d c3 ea 07 be
       0.08814889 0.093985625 0.058939308 -0.13273148
0000a0 cd 19 a2 3d 05 f1 47 be a9 d2 6a 3d e7 7e 4a bd
       0.07915077 -0.19525535 0.057329807 -0.04943743
0000b0 d4 4d bc bd d6 82 93 3e b0 b0 55 3d 82 2c 49 bd
       -0.09194532 0.28810757 0.052170455 -0.04911471
0000c0 29 12 ad 3d ef 4c 4f bd 39 ce 1f be da 09 83 bd
       0.084507294 -0.05061048 -0.15606011 -0.063983634
0000d0 cd 30 99 3d 82 f1 27 be d7 bc b5 3d 95 9a d5 bd
       0.07480011 -0.16400722 0.08873909 -0.10429875
0000e0 57 d3 5c 3d c0 fd 03 be 5a 50 b5 be 72 cc 4e bd
       0.053912487 -0.12889767 -0.35412866 -0.050487943
0000f0 fc 04 6e bd b7 87 4b 3e 17 5f 52 3d dc 3d b2 3d
       -0.058110222 0.1987599 0.051360216 0.08703205
000100 66 d1 8a bd 96 9c 91 3d 5d 74 00 be 6e 1c 91 3d
       -0.06778221 0.071099445 -0.12544389 0.07085501
000110 1d cd 42 3d c9 c3 80 3d d5 ca 0d be ca 7a 05 be
       0.047558893 0.06287343 -0.13846906 -0.13035122
000120 c0 bf 5f be ee f7 26 3d f9 c7 72 bd 80 b3 8b bd
       -0.2185049 0.040763788 -0.05927274 -0.06821346
000130 29 a0 6d 3d 29 0a 9d bd c4 5a ca 3d 16 f4 fe 3d
       0.05801407 -0.076679535 0.098805934 0.124488994
000140 24 86 4e 3d a6 5a 17 3d 6e e1 42 be dd e7 ec 3d
       0.050420895 0.036951683 -0.19031307 0.11567662
000150 a4 45 95 be b5 cc 35 3d e0 2c c4 bd a0 e1 8c 3d
       -0.29154694 0.044384677 -0.09578872 0.06878972
000160 14 b0 46 3d 67 76 2b 3d 6c b7 b9 3d 3a 0e 8d 3d
       0.048507765 0.041860964 0.09068188 0.06887479
000170 b3 ae 40 be 6d 02 bc bd 36 a3 88 3d 51 71 86 3d
       -0.18816642 -0.0918015 0.06671755 0.06564582
000180 c2 ea 72 be 5a c0 b3 bd e9 8b be 3d 4d 37 8f 3d
       -0.23722365 -0.087769225 0.093040295 0.0699297
000190 4f b4 e4 3d 45 f1 0c 3e 82 78 2b be 13 14 52 3d
       0.11167204 0.13763912 -0.16745189 0.051288676
0001a0 52 6c 8b 3d f9 e4 0f be 93 1b cb 3d 99 a6 a0 bd
       0.0680777 -0.1405219 0.09917369 -0.07844276
0001b0 ce 95 8e 3d 26 d8 94 be fb fd 65 3d 6b 57 4c be
       0.06962167 -0.29071158 0.056150418 -0.19955222
0001c0 51 ac 3e 3e 3b 69 c1 bd d2 0e 26 be 67 91 33 3d
       0.18620421 -0.09443899 -0.16216591 0.04383984
0001d0 bf 4a ca bd ac c9 97 3d 0e 88 51 be d9 51 81 bd
       -0.09877538 0.07411513 -0.20462057 -0.06314439
0001e0 a4 b5 9b be a8 a0 19 3e 39 89 e5 3d 08 c1 46 3d
       -0.30412018 0.15002692 0.11207814 0.048523933
0001f0 af 25 72 3d 3a 5e 16 be 6b 97 f3 bd b7 87 1d 3e
       0.05911797 -0.14684382 -0.11894115 0.15383802
